models/fed_nodp_final.pt (torch, 19689 bytes, 5 tensors)

network.0.weight f4 [64, 30]
000000 be a9 c0 3d 5e 09 a5 bd 68 f9 10 bd ae 80 af 3d
       0.09407376 -0.08058427 -0.035394102 0.085694656
000010 da 01 30 be d0 3d e0 3d a7 d8 19 bd b4 39 be 3d
       -0.17188206 0.1094929 -0.03756013 0.0928835
000020 a2 eb cf 3c 21 22 b7 bc c9 6a 4f 3d e1 90 13 3c
       0.025380913 -0.022355141 0.050638948 0.00900671
000030 2c 90 88 3d bf b6 91 bd 75 17 5a bc 30 a6 86 bc
       0.066681236 -0.07114934 -0.013311257 -0.016436666
000040 fc c8 d8 3c f4 31 3f ba 41 6e 23 3e 24 b7 68 3d
       0.026463024 -0.00072935154 0.15960027 0.05681528
000050 44 3f 8b bd 0f d4 e1 bd a9 b1 fa bc 8f 48 a1 bd
       -0.06799176 -0.11026775 -0.030602293 -0.078751676
000060 98 a3 6f bd 60 3a 0f 3c 37 e6 de 3d 1f 3c cb 3d
       -0.058505625 0.008741945 0.10883754 0.099235766
000070 4d c2 36 be b2 cb e7 3d 3b ea 50 3d 8e 56 31 3e
       -0.17847557 0.11318149 0.05100463 0.17318174
000080 e3 cd f6 3d b6 57 2a be 62 c2 31 be 88 59 b4 bd
       0.120509885 -0.16635022 -0.17359307 -0.08806139
000090 11 2b 24 3e e8 20 f9 bc e6 04 a0 3d da c2 ad bd
       0.16032054 -0.030411199 0.07813434 -0.084844306
0000a0 ce 71 37 3e 9a 33 9e bd f2 33 0c 3e 03 b0 0d 3b
       0.17914507 -0.07724686 0.1369169 0.0021619804
0000b0 bb fb c4 bd 40 32 c0 3d e0 7a c6 bd 42 f0 5b 3d
       -0.09618326 0.093845844 -0.09691405 0.053695925
0000c0 86 f0 57 bd 75 f9 a3 bc bc bc 33 be 3d 46 b2 bd
       -0.052719615 -0.020016411 -0.17552465 -0.08704803
0000d0 b7 e5 ca 3d 6c c7 35 bd a7 37 3a 3e 9b dc 15 3e
       0.09907096 -0.044379637 0.18185292 0.14634936
0000e0 33 10 0c bc 74 94 f9 bd c0 b2 e3 3d aa 17 68 3d
       -0.008548784 -0.12186518 0.11118078 0.056663193
0000f0 12 a5 59 be 69 ca eb 3c f8 40 2f ba 0c 3c 5b 3d
       -0.21254376 0.02878304 -0.00066854013 0.053524062
000100 f6 c0 57 be a8 3a ee bd 6b e3 9d bd 1c 8d ed bc
       -0.21069703 -0.116322815 -0.07709392 -0.02899795
000110 eb ae 7f be 62 85 7c be 50 b1 19 bc 82 98 0f be
       -0.2496907 -0.24660257 -0.0093806535 -0.14023021
000120 99 7d 24 bd b9 f6 d4 bd 47 27 8d bd b0 2a ed bd
       -0.04015884 -0.10398621 -0.06892257 -0.115804076
000130 47 8c f6 bd 9f 68 7e bd f5 51 99 be 42 6e 58 bd
       -0.120384745 -0.062111493 -0.2994534 -0.052839525
000140 df e5 6d be be 67 57 be 8f 44 c6 bd 4c 40 03 be
       -0.2323222 -0.21035668 -0.09681045 -0.12817496
000150 2f 08 be 3b 22 4f 36 be 13 3d 79 be 84 c0 60 3d
       0.0057993154 -0.17803624 -0.24339704 0.054871097
000160 24 67 02 be e3 45 2c 3b f1 69 70 3d 94 31 0c be
       -0.12734658 0.0026286773 0.058694784 -0.13690788
000170 8d 3c 16 3d ef 9f 33 3d 21 5b fa bd 2d 69 b1 bd
       0.03667884 0.043853696 -0.12224413 -0.08662639
000180 5e fd 7e 3d bf f3 05 3d 49 0d 9f bd d0 60 62 bd
       0.06225335 0.032703158 -0.07766206 -0.05526811
000190 d0 3a 2b 3e 03 5d 0a bd f4 ce d2 3d b2 e7 a1 3d
       0.16721654 -0.03378011 0.102933794 0.079055205
0001a0 08 b3 f1 bd 2d fe 1e be f8 74 33 3e 1f 32 1c 3c
       -0.118017256 -0.15526648 0.17525089 0.009533434
0001b0 85 26 00 3e fb f8 1a 3d 64 84 70 3d fb a5 0b 3e
       0.12514694 0.037835103 0.058720008 0.13637535
0001c0 3e 46 31 3e f0 1e f8 bd d1 ff ba 3c 6b 84 0b 3e
       0.17311952 -0.12115276 0.02282706 0.13624732
0001d0 fd 6f 07 3e db 49 e8 3d b6 4d 07 be b6 a0 06 be
       0.13226314 0.11342212 -0.13213238 -0.13147244
0001e0 88 bc 30 be ca 6e 31 bd 56 9f fa 3d 07 20 12 be
       -0.17259419 -0.043318547 0.12237422 -0.1427003
0001f0 b0 c6 16 3d 36 0e a3 bd aa c6 cb bd 9c 62 f6 3c
       0.036810577 -0.07961695 -0.099500015 0.030076317
000200 98 5b 1f 3d 27 95 d0 3d a8 1a 2e be 28 74 14 bd
       0.03890571 0.101846986 -0.17002356 -0.036243588
000210 e4 51 ce 3d 4e 8e f4 3d e8 5c 43 3d 38 46 22 3e
       0.10074213 0.11941205 0.047696024 0.15847099
000220 6e f8 16 3e 1a 1e 76 3d 5d 93 eb bd 7a db 15 be
       0.14743206 0.0600873 -0.11502717 -0.14634505
000230 9a ca 12 be 01 01 ae bd 1f be 2c be 82 21 e0 3c
       -0.14335099 -0.08496285 -0.168694 0.027359728
000240 74 97 4f bb a3 41 09 bd da ba db 3d 8c ee 96 3d
       -0.0031675966 -0.03350986 0.107289985 0.07369718
000250 6c 02 50 3d ba 41 7f 3d c4 2d 47 be e4 5c 31 3d
       0.05078356 0.06231854 -0.19451052 0.043301478
000260 6f fa ff bd bc a2 80 bd 08 61 8b be 98 f8 52 bc
       -0.12498938 -0.06281039 -0.27222466 -0.012876652
000270 24 13 f1 3d 6a e0 ff 3d 31 da 9d 3b 63 3e 54 be
       0.11771229 0.124939755 0.00481727 -0.20726924
000280 3c e3 6d be 1a ad 22 be a4 2e d6 bc 6c 92 9a 3d
       -0.23231214 -0.15886346 -0.026145287 0.07547459
000290 5a 39 a6 be 07 3a 80 3d f9 c7 52 bd a0 91 7f bd
       -0.3246563 0.06261068 -0.05146024 -0.06239474
0002a0 df d2 8b be f6 cb 45 be 1e e0 27 be dc 80 2f bc
       -0.2730932 -0.19316086 -0.16394088 -0.010711875
0002b0 18 42 1a bd 73 49 db 3c 16 45 c5 3d f9 de bc 3e
       -0.03766069 0.026768422 0.09632318 0.36888865
0002c0 45 60 b7 3e 0f 4b 45 3e 58 f7 24 be e8 8e c4 3d
       0.35815635 0.19266914 -0.16109979 0.0959757
0002d0 de 00 3b bd 14 d5 71 bc f7 0f 21 be 73 b7 13 bd
       -0.045655124 -0.014760274 -0.15728746 -0.036063623
0002e0 2c 2b f1 bd 82 cb 2b 3e 9b a0 21 be 9c ba 11 be
       -0.117758125 0.16776851 -0.15783922 -0.14231342
0002f0 87 25 cb bb 12 2e ca bd 41 ca 85 3d a3 ed 8f bd
       -0.006199542 -0.098720685 0.065327175 -0.070277475
000300 2e 9f af bd 80 6b 29 3c 48 56 07 3e 5f 82 03 be
       -0.08575283 0.010340571 0.13216507 -0.12842701
000310 65 97 af 3d 6c 37 f0 3d 3b e1 36 3e 34 db 02 be
       0.08573798 0.11729321 0.17859356 -0.12778932
000320 89 1d 35 3d 82 3d 0a be 1b 9d 1f 3e f5 0a 91 bd
       0.04421762 -0.13500026 0.15587275 -0.07082168
000330 14 3a e1 3d 42 1c b2 3b 52 f8 68 bc 2c e4 be bb
       0.10997406 0.0054354975 -0.01421936 -0.00582554
000340 79 40 fe 3c b8 42 b0 3d 7e c8 4e bd 8f 26 b8 bc
       0.031036602 0.086064756 -0.050484173 -0.022479324
000350 69 da 79 be 18 77 4f 3d 8a 8b a4 3d 0c f7 9f 3d
       -0.24399723 0.050650686 0.080344275 0.07810792
000360 aa 69 89 3d 2c 12 54 be 06 dc 12 be 25 53 ab 3d
       0.06709607 -0.20710057 -0.14341745 0.08365468
000370 aa b0 55 be 49 b7 bc 3d 07 4d 58 be 26 3f 46 be
       -0.20868173 0.09214646 -0.21123134 -0.19360027
000380 81 de c3 3b 04 a1 54 be 00 d5 e8 bd 48 91 59 3d
       0.0059774523 -0.20764548 -0.113687515 0.053117067
000390 6b 51 83 3d 2e aa c2 3d 63 80 ee bd 3c 8c 5f be
       0.064120136 0.095051154 -0.116455816 -0.21830839
0003a0 57 c0 ce 3d 98 1b f5 bd 2c 84 1e be a7 cc 05 bd
       0.1009528 -0.11968154 -0.15480107 -0.032665875
0003b0 4e 48 4f be ec f0 2b 3d 2b c6 14 3d ff eb 65 be
       -0.20242426 0.041977808 0.0363218 -0.22453307
0003c0 1a 42 91 be 7a eb 2e be 2c 7a 5e bd 69 42 fe bd
       -0.28370744 -0.17082015 -0.05431573 -0.124150105
0003d0 22 f8 5d be d3 8b 60 bd 76 33 55 be ff 89 25 be
       -0.21676686 -0.054820847 -0.20820412 -0.16165923
0003e0 55 e2 71 be 32 71 dc 3c 6a 63 8d 3d 5b c9 1f be
       -0.23621495 0.026909444 0.06903727 -0.15604155
0003f0 3e ec c3 bd 8c 5d 5a bb 97 6a 37 bd 6c 2f af bd
       -0.09566544 -0.0033319918 -0.044779386 -0.08553967

network.0.bias f4 [64]
000000 1f 36 82 bd df 69 23 be 38 77 42 bd 7c a1 a1 bd
       -0.06357979 -0.15958355 -0.047476977 -0.07892129
000010 46 58 5d be a6 4a 59 be 5a 36 1f be d5 1c 55 3c
       -0.21615705 -0.21219882 -0.15548077 0.013007362
000020 54 84 90 be 0a 20 0f be a1 f3 38 be 92 08 d0 bc
       -0.28225958 -0.13977066 -0.18061687 -0.025394712
000030 7b e9 66 bd 76 52 ce 3d ba 7d 46 be 13 10 13 bd
       -0.056375008 0.10074322 -0.19383898 -0.035904
000040 2a 39 23 3e 81 b4 be bd a5 27 80 bd 82 7f 4b be
       0.15939775 -0.09311772 -0.062575616 -0.19872859
000050 5a 3b 08 3e fe ee 7b bd de 53 ea bd ca fa c5 3d
       0.13303891 -0.061507218 -0.11441778 0.09666975
000060 01 70 71 bd 90 aa 34 bf 77 97 57 be 63 8b 21 be
       -0.058944706 -0.7057276 -0.21053873 -0.15775828
000070 4d 06 37 bd 85 e1 76 bd 9e ee 4f bf 7d 18 df bd
       -0.044683743 -0.060273666 -0.81223476 -0.10893343
000080 a4 ee 47 be c0 0f e8 bc f6 46 3f be 76 00 24 bd
       -0.19524628 -0.028327823 -0.18679413 -0.040039502
000090 b0 f5 bc bd 6f a2 9e be c9 47 10 3e ab 55 39 3e
       -0.09226549 -0.30983302 0.14089884 0.18099086
0000a0 0a a1 dc bc d9 80 ee 3d 36 6d 19 be a2 76 62 be
       -0.026932258 0.116456695 -0.14983067 -0.22115567
0000b0 ce 25 1f 3e 1d 46 24 3d f4 fa 4e 3d 9e be d5 3d
       0.15541765 0.040105928 0.050532296 0.10436748
0000c0 22 06 52 be 99 62 38 3d b5 83 8a bd ba e3 6c bd
       -0.20510152 0.045015905 -0.067634024 -0.057834364
0000d0 fa 7e 1d 3d 04 de 19 3e 2f 43 70 3c cf 99 5e bd
       0.038451172 0.15026098 0.014664455 -0.054345902
0000e0 a3 3e 47 3d 7a 86 da 3e 68 cd 90 be d3 69 22 be
       0.04864372 0.42680722 -0.28281713 -0.15860681
0000f0 3d c4 94 be bf fc 37 be b6 3c 65 3d 36 f1 7c be
       -0.29055968 -0.17967509 0.0559661 -0.2470139

network.3.weight f4 [32, 64]
000000 84 10 be bd 20 ef ff bd e8 c4 df ba c0 fc ef 3d
       -0.09280494 -0.12496781 -0.0017072232 0.1171813
000010 f6 fe b4 3d 5b d5 c9 bb 80 e9 57 bc 80 53 e9 3a
       0.088376924 -0.006159467 -0.013178229 0.0017801374
000020 bd da 0a bd 48 a4 a0 bd ec 7d 93 bd bc 18 d5 3d
       -0.03390001 -0.07843834 -0.07201752 0.10405108
000030 f0 9c 56 bc 48 cc 3c 3d 1b fb c7 bd c0 38 eb bd
       -0.01309894 0.046093255 -0.097646914 -0.114854336
000040 18 be bd bc f9 57 31 bd 0c 73 97 3d 0e 4d a6 3d
       -0.023161933 -0.043296788 0.0739499 0.08120166
000050 67 29 c6 bd 18 af fb 3d 1a 49 88 bd 00 a8 09 3c
       -0.096758656 0.12289256 -0.06654568 0.008401871
000060 fa 71 a0 bd d3 22 7b bd fb 1a ba 3c 7b c2 d3 bd
       -0.07834239 -0.061312508 0.022717943 -0.103398286
000070 a0 19 a0 bc 14 63 e4 bd bc 9a c9 bc 46 ac c7 bd
       -0.019543469 -0.1115171 -0.024609916 -0.097496554
000080 69 b5 a4 3b e1 62 a6 bd 8c 17 cc bc a8 8e f1 bd
       0.0050265086 -0.081243284 -0.024913572 -0.11794788
000090 14 eb f9 bc 96 5c b2 bd d6 33 99 bd f1 06 d9 3d
       -0.030507602 -0.087090656 -0.0748059 0.10597027
0000a0 08 52 86 bd 82 75 a9 bd 44 4b 90 bd 46 ff ca bd
       -0.06558615 -0.08274366 -0.07045606 -0.09911971
0000b0 b5 2a 19 be d1 3e 7d 3c 00 aa e6 3a d5 2d df 3d
       -0.14957698 0.015456871 0.0017598271 0.10897414
0000c0 5f 04 3f bd e8 b1 e2 bd 2c 20 dc 3d 38 c2 00 3d
       -0.046635028 -0.11069089 0.10748324 0.03143522
0000d0 40 f3 dc bc 5c a9 b3 3d e7 45 5e bc 2a 84 d7 bd
       -0.02697146 0.08772537 -0.013566471 -0.10523255
0000e0 52 42 49 be 78 10 10 be 19 54 0e be 66 cf 01 be
       -0.19654205 -0.14068782 -0.13899268 -0.12676772
0000f0 2a af 4c bc 7c 00 e1 bd 66 34 fa bd 39 32 1c be
       -0.012492934 -0.109864205 -0.122170255 -0.15253533
000100 4e 92 85 bd 46 81 a0 3d 61 92 26 3c 3e 51 fe 3d
       -0.06522046 0.07837157 0.010166735 0.124178395
000110 aa 41 49 bd a6 e4 28 be 1c a6 f9 3d af 06 0b be
       -0.049134888 -0.16493472 0.12189886 -0.13576768
000120 0d 07 4c bd 9e f6 a2 bd b8 49 1e 3d 34 fc 28 3d
       -0.04981141 -0.07957195 0.038644522 0.041256145
000130 da cf ee bd c4 85 2c bd 76 7d cb bd f6 88 d9 3c
       -0.11660738 -0.042119756 -0.09936039 0.026554566
000140 ba 72 91 bd ac b1 ce bd fa 8a e3 3d 66 09 c2 3d
       -0.071019605 -0.10092482 0.11110492 0.09474449
000150 3e 4f 17 be d4 8e d5 bd 43 9e ca 3d dc 59 13 3d
       -0.14776322 -0.10427633 0.09893467 0.03597437
000160 3a 45 c4 bd 85 b1 80 bd 30 97 06 be 0e 9d dd 3d
       -0.095835164 -0.06283859 -0.13143611 0.108209714
000170 0d 12 0d bd 11 38 1d bd bb b5 b6 bd 98 d4 bd bd
       -0.034441043 -0.038383547 -0.08921381 -0.09269065
000180 e0 8c ef bd 72 9f ed 3d 80 8c 91 bd 5c 91 bd 3d
       -0.11696792 0.116026774 -0.071068764 0.09256241
000190 7c 96 b3 bd 03 5c 96 bc b8 a4 aa 3d 04 6c 0f bd
       -0.08768937 -0.018354421 0.08332199 -0.03501512
0001a0 cf 6c 80 bd 38 c1 ba bd 58 71 aa bd d6 f0 0b be
       -0.062707536 -0.09118885 -0.083224 -0.1366609
0001b0 ed 58 35 be a0 58 0e 3d c8 aa 5c bd c8 d6 30 bd
       -0.17709704 0.034752488 -0.053873807 -0.04317358
0001c0 7c 45 ea bc d8 c0 1a bd 08 89 79 bd 44 f3 0a bd
       -0.028597586 -0.037781566 -0.0609217 -0.033923402
0001d0 94 9b 06 bd 1d 07 6f 3d 0c 8c 48 bc 54 fd cb 3d
       -0.032863215 0.058356393 -0.012240421 0.09960428
0001e0 8e a2 cf bd 69 2a 22 be 35 44 e2 bc dc 99 b6 bd
       -0.10138427 -0.1583649 -0.027620414 -0.08916065
0001f0 e8 47 4a 3d e5 a2 ee bd 30 8a 5a 3c 6e 34 2b be
       0.04938498 -0.116521634 0.0133386105 -0.16719219
000200 ba f9 b8 3d 62 a1 a9 bd f8 2e f1 bc 4e ce d0 bd
       0.090320066 -0.082827345 -0.029441342 -0.101955995
000210 92 90 b9 3d d2 f9 8c bd a4 93 66 3d 27 6c 06 be
       0.09060778 -0.06883587 0.056293145 -0.13127194
000220 26 d6 2d 3d 08 ee d8 bc 3a c9 b4 3d f6 23 bc 3d
       0.042440556 -0.02648069 0.088274434 0.091865465
000230 58 d2 b6 bc 00 03 50 bc f8 bc 0f 3c f6 23 b1 bd
       -0.022317097 -0.012696028 0.008773081 -0.08649437
000240 68 57 50 bd 03 b4 24 be 64 0b fb bd 10 cc 86 bd
       -0.050864607 -0.16084294 -0.12258032 -0.065818906
000250 45 0e d0 bc a0 12 25 3c 40 4e 24 3c 00 5a 99 3c
       -0.02539743 0.010075241 0.010028422 0.018719673
000260 e0 1d bd bc 92 e5 e2 3d fc 98 ad 3d 58 51 bb bd
       -0.023085535 0.11078943 0.08476445 -0.091463745
000270 aa a3 61 3a 76 23 a4 bc 59 30 27 3e ef 19 a1 bd
       0.00086074567 -0.02003644 0.16327037 -0.078662746
000280 68 84 c4 bd 1a ad 75 3d 1e 42 f9 bc 1e 79 e9 3d
       -0.09595567 0.059979536 -0.030427035 0.114000544
000290 90 f1 da 3c 48 de 81 3e 88 93 dd 3c e9 f2 e6 bc
       0.026726514 0.253649 0.027047887 -0.028192
0002a0 2f 5d e9 bd f0 b4 78 3c 1e 00 f6 3d 18 7d 05 3d
       -0.113947265 0.015179858 0.12011741 0.03259
0002b0 fa 3f d8 3c 84 14 f0 3d 44 07 c8 3d 5a b0 8f bd
       0.026397694 0.11722663 0.09767011 -0.07016058
0002c0 80 5f b8 bd e0 c7 1b bd dc 65 84 bd 68 ec 0a bd
       -0.0900259 -0.038032413 -0.06464741 -0.03391686
0002d0 d8 62 2f bd f8 02 e0 3d 8c 5b 32 bd 33 cd f7 3d
       -0.042818874 0.10938066 -0.043544337 0.120996855
0002e0 50 9e 13 be 7e 07 2f be c6 d0 70 bc 5d 25 64 bd
       -0.1441586 -0.17092702 -0.014698213 -0.055699695
0002f0 b8 63 b2 bd 13 08 a0 bd b8 d3 11 3d e6 8a 1c bd
       -0.08710426 -0.0781404 0.0356023 -0.0382184
000300 70 2f 89 bc 9e f6 81 3d 70 e5 6a bd 40 5f c9 3d
       -0.016746253 0.063458666 -0.057347715 0.098326206
000310 76 39 d3 bd 04 c3 13 be a0 54 31 3d 98 64 33 3d
       -0.10313694 -0.14429861 0.043293595 0.043797106
000320 d0 7b 49 bd 19 39 1e be 40 a0 a3 bb c0 da 2c bd
       -0.049190342 -0.15451469 -0.0049934685 -0.042200804
000330 c4 99 23 bd 08 46 bd bc 5f 96 81 bc 26 7a a3 bd
       -0.039941564 -0.023104683 -0.015818773 -0.07982282
000340 4a 86 b3 bd 38 9c d6 bd 2e 6d d6 bd 94 b4 ff bd
       -0.08765848 -0.10479015 -0.10470043 -0.124856144
000350 c0 85 41 3d 0c 0a 8f 3d 30 74 c1 3d 00 20 22 3c
       0.047246695 0.06984338 0.09445989 0.009895325
000360 20 98 52 bd 84 87 d4 bd 58 fe ae 3c 16 b6 9a bd
       -0.05141461 -0.1037741 0.021361515 -0.075542614
000370 ed e3 76 bc 13 2b 89 bd 68 63 7f bd d5 f5 0b be
       -0.01506899 -0.06697669 -0.06235066 -0.13667996
000380 4f be d1 3d da a5 47 3d 10 54 26 bb 40 85 3d 3b
       0.102413766 0.048742153 -0.0025379695 0.0028918535
000390 30 dc 86 3d b5 1f 45 bd 40 93 97 3d b0 3c ae bd
       0.06584966 -0.04812594 0.074011326 -0.08507669
0003a0 b9 df d6 bc a6 f0 e7 3d c4 55 b4 bd b2 ac 91 3d
       -0.026229726 0.11325197 -0.08805421 0.07113017
0003b0 98 8f 0a be 7c 73 16 bd c0 25 c1 bb b8 2f 05 3d
       -0.13531339 -0.03673123 -0.0058943927 0.03251621
0003c0 c9 ae 13 be ef 18 d6 bd 88 58 6a 3d c4 80 07 3d
       -0.14422144 -0.104539745 0.057213336 0.033081785
0003d0 81 fa 63 bc 75 ca fe bd fc 0a 93 3d 18 58 3d bd
       -0.013914705 -0.12440959 0.071798295 -0.04622659
0003e0 55 2b f3 bd 71 88 f5 3d f3 1d 3b bd 75 9c 05 3d
       -0.11873499 0.11988915 -0.04568286 0.032619912
0003f0 2c c1 f5 3c 43 de f4 bd 0c 74 ce bd 7c 3e e4 bd
       0.029999338 -0.119564556 -0.10080728 -0.111447304

network.3.bias f4 [32]
000000 fd 7b 4f bd b6 33 95 bd 80 cf 29 bf fd b9 ba 3e
       -0.050655354 -0.07285254 -0.66332245 0.36470023
000010 15 6d 62 bf 40 98 d8 3e bb 18 45 bf a8 ab a5 bb
       -0.88447696 0.42303658 -0.7699086 -0.0050558634
000020 42 94 81 bc ce aa 1f be e4 5d b7 3e f9 5f e3 bd
       -0.015817765 -0.155925 0.3581382 -0.1110229
000030 0a 8f e5 3e 8c 37 53 3f 93 74 1f be 11 e7 62 be
       0.44835693 0.8250663 -0.15571813 -0.22158457
000040 6f 8a 0e 3f 43 11 c7 3e 90 14 53 bf 70 9f 5d 3e
       0.5567998 0.38880357 -0.8245325 0.21642852
000050 d2 dd d7 3e 0a e7 e3 3e 77 29 17 be 4f 25 ec 3e
       0.42161423 0.44512206 -0.14761911 0.46122214
000060 bc 4d eb 3e e1 bd 54 bf a9 d4 cf bd 0a d3 3d bf
       0.45957744 -0.8310223 -0.101479836 -0.74150145
000070 5c 44 44 3f f8 92 55 bd 94 93 d3 be 01 f9 b2 3e
       0.7666681 -0.052142113 -0.4132353 0.349556

network.6.weight f4 [1, 32]
000000 54 67 3b bd 6e f5 6a bc 24 05 9a bd 3a e3 81 3e
       -0.04575284 -0.014340742 -0.07520512 0.25368673
000010 95 5d b1 bc a7 a8 c9 3d 41 cb e5 bc 30 ec 10 3b
       -0.021651069 0.09846621 -0.02805102 0.0022113435
000020 d1 1f 43 3c a1 bd 77 3c dd 71 d8 3d ae 09 34 3d
       0.011909441 0.015120895 0.10568593 0.043954544
000030 c7 61 75 3e 46 d6 83 3e 34 b0 14 bd 2d 33 3a bc
       0.2396308 0.25749415 -0.036300853 -0.01136474
000040 01 0e 51 3e 4e 6f 3f 3e f8 c4 b5 bd ce 98 0f 3e
       0.20415498 0.18694803 -0.088754594 0.14023134
000050 26 78 77 3e a8 f3 36 3e 14 cd 37 3c ae 73 a3 3e
       0.24166927 0.17866385 0.011218328 0.31924194
000060 71 a3 42 3e 48 da 61 bd 96 9f 34 be 33 6e 6f bd
       0.1900766 -0.05513981 -0.17639002 -0.058454704
000070 01 30 86 3d 29 a5 13 bd 03 d8 83 be b4 66 45 3e
       0.06552125 -0.03604618 -0.2575074 0.1927746
